model.pth (torch_old, 623969 bytes, 4 tensors)

weight f4 [1524]
00000000: 59aa 273e 4bb2 153f 0e04 e4be 2fad 763e
00000010: a376 cebe b941 63bf 4667 493f 48c6 9b3e
00000020: 3670 f4be c4ea 2d3f c3d4 dcbd 72d9 30bf
00000030: e0c8 193f 97ef 6a3e 839e f3bd 4b19 1ab7
00000040: c34b 34bd 8f9c 1abe f8aa d9bf f049 533f
00000050: 08a4 a3be 63b7 c8bd 2225 1bbf f50c d7be
00000060: 35c2 78bf b9ee 843f f5eb d93e 88fa 9f3f
00000070: d4a2 723f 305b 3737 8661 50bd cd95 03b7
00000080: f08c b136 126b b2be 8768 df3c 4c67 cabe
00000090: 1e75 b337 dd27 4c37 c78d e73e 2b41 5f3f
000000a0: c582 823b 128b 003f 0faa 8b3f 9417 26bf
000000b0: a993 1a3f 7391 bd3f 91ef 81be 8a5d 44bf
000000c0: 2f98 f23d d36c dfbe 4fea 893f 73d8 0cbf
000000d0: 1892 35bf eaf4 223f 73e4 94bf e523 cf3f
000000e0: 2d39 8ebf 9e1f cb3e a3ad 9e3c 606d a5be
000000f0: d41f d337 6be0 ab3d 0eec 13be 0a23 4fbe
00000100: df0e cc3e 41d9 95be 7ff0 40bf 23f7 833f
00000110: 7f43 2e3e 8905 4439 4c76 fabe 0211 7d3d
00000120: 03b0 e7bc 73fc a7b8 79a7 c639 a7ed b0ba
00000130: db41 693f b491 0c3e 3592 8d39 e8a1 193c
00000140: 616f cf3e ed97 d63f ba80 90be afe0 0337
00000150: 70e4 9abe 22ee 393f 2732 893f 37f7 ae3e
00000160: df11 15bf f821 ef3e dafd 753f 932d 0b3b
00000170: 2f60 2ebe 99e6 f63d fbd1 a63f a7af 903d
00000180: c48d 79bf 985c 873d cc57 853f 0c1e ad3f
00000190: 48cd ab3d 0247 2238 22a5 cc3e c29a b8bd
000001a0: 6822 a4be b5a5 a03e 388a d73e 7c4f 71bf
000001b0: a45b fcbe 17c0 8235 faf0 02b8 fa11 fabe
000001c0: 41db 0e3f d4e5 f3bd cf2c 69bd 9739 97bf
000001d0: 6045 f03d 772f 1c3f a1ad 523f 384f d5b7
000001e0: 32c5 a1b8 5108 963d abd2 a13d 399f a2bf
000001f0: 5f1e eb3e f0b9 20bf 7a38 b9be 5c8d 62bf
00000200: 65f4 b53d 42a3 ab3a aecf 57b9 67dd 183f
00000210: e9d3 1bbf 0e4b 38bf d798 10bf 07b8 a2be
00000220: b44d abbc 9c8b 03bc 66b5 44be 740a 32b7
00000230: 1161 ca36 169f 0dbf ad70 8eb7 80ad adbe
00000240: 6e5d b438 0a46 863e 7b43 9138 6ecf dabe
00000250: 51bc 453d 3f16 5f3d 04b0 e13e 500c b538
00000260: 6df1 c2bf 482a acbd 6a42 d8bf 8bc7 81be
00000270: 6480 a33f d160 ad3f 5abd 933e 176f 6e3d
00000280: f344 68bf 6230 ad3d b36d 5435 67d2 533e
00000290: 438b 193f 04fc 05b7 20c2 353e 28b7 0d3f
000002a0: 195a c7be 714d 0cbe d266 edbe a599 25bf
000002b0: e6c3 6637 a19c 88b8 b801 033f a3bf 9e3e
000002c0: 5282 b5be d1ec 393f ee64 803e 52de 3eb7
000002d0: 7d12 b437 b807 ed3e cf26 323f 3159 f8bf
000002e0: eea5 5ebf a15a bf3f f4cf f5b7 3c92 f637
000002f0: 2c0e 5c3e 2c58 2b3f 5a01 9837 0828 b03e
00000300: 5337 d53d 6961 563f 2c5e 6b3e e573 0e3f
00000310: 671d d03e 7810 bc36 04b7 623e ffce 97bd
00000320: 6605 1a3f ee99 7939 bd91 9a3f 0f92 133e
00000330: c9f3 c3bf 418d 4c38 c323 1fb7 0521 0c37
00000340: 7e80 aabe e3a2 b0bf 6315 c5bc ac0a 733f
00000350: bd9d 05bf c0e5 1ebf 921b cb3b fb1b 43bc
00000360: ef72 a4bf 0b14 713e 667f b0be aaea aa3f
00000370: 071f 67bf 5372 043d 0148 b1bf 73be a1b7
00000380: 872d 04b7 d364 653e f16b 83be a849 90bd
00000390: a5a5 573f 6060 ff36 5215 4a38 c64d 3fbf
000003a0: 7d01 acbf eb1e 25bf aeac c5bf 3a04 5b3c
000003b0: da98 c8bf 9379 dc3d 36d9 f8be 26b0 0bbc
000003c0: f866 4a3d 112e c4be 79d4 ef3d b32e 52be
000003d0: 3bee 773f db6d 45bf c6f4 bebc 8144 87bc
000003e0: 9a96 d4be 99d1 323f c7b3 e93e 8741 b9be
000003f0: 5b60 8e3f 1007 df3e 06d1 8abd 3e7c 06b9
0.16373576 0.5847518 -0.44534343 0.24089502 -0.40324888 -0.8877216 0.7867321 0.30424714
-0.4774186 0.6793635 -0.107827686 -0.69081795 0.60072136 0.22942959 -0.11895468 -9.185004e-06
-0.044017565 -0.15098785 -1.70053 0.82534695 -0.31961083 -0.09800603 -0.60603535 -0.42002073
-0.97171336 1.0385352 0.42562833 1.2498331 0.94779706 1.0928881e-05 -0.050874256 -7.843087e-06
5.2914183e-06 -0.34847313 0.027271522 -0.39531934 2.1393e-05 1.2168629e-05 0.45225355 0.87208813
0.003982874 0.50212204 1.0911273 -0.6487973 0.6038156 1.4810013 -0.25378087 -0.7670523
0.11845433 -0.43637714 1.077463 -0.55017775 -0.70926046 0.6365496 -1.1632217 1.6182829
-1.1111199 0.3967256 0.019369906 -0.3231001 2.5167981e-05 0.08392414 -0.14445516 -0.2022821
0.39855096 -0.29267314 -0.7536697 1.0309795 0.17017935 0.00018694079 -0.48918378 0.061783798
-0.028282171 -8.010203e-05 0.0003789028 -0.001349856 0.9111611 0.13727456 0.00027002548 0.00937698
0.40514663 1.6765114 -0.2822321 7.860522e-06 -0.3025241 0.72628987 1.071843 0.34172985
-0.58230394 0.46705604 0.9609047 0.002123688 -0.17028879 0.12055702 1.3032831 0.07064753
-0.9748194 0.06609458 1.0417418 1.3524795 0.08388764 3.868994e-05 0.39969736 -0.09013893
-0.320575 0.31376424 0.4209764 -0.9426191 -0.49288666 9.74166e-07 -3.1218842e-05 -0.4884184
0.55803305 -0.119090706 -0.0569275 -1.181445 0.11731982 0.61009926 0.82296187 -2.5428468e-05
-7.713809e-05 0.07325805 0.0790151 -1.2704841 0.4592161 -0.6278372 -0.361759 -0.8849695
0.08884505 0.0013094919 -0.00020581365 0.59712833 -0.60870224 -0.71989524 -0.56483215 -0.31781027
-0.020911075 -0.008028891 -0.19209823 -1.0612061e-05 6.031369e-06 -0.5532087 -1.6980188e-05 -0.33921432
8.6004715e-05 0.2622531 6.926708e-05 -0.4273638 0.048275296 0.054464575 0.44079602 8.633046e-05
-1.5229927 -0.08406502 -1.6895268 -0.25347552 1.2773557 1.3545171 0.288554 0.058211412
-0.9073021 0.08456494 7.913579e-07 0.20685731 0.5997812 -7.986095e-06 0.17749834 0.553576
-0.38935927 -0.13701417 -0.46367508 -0.6468757 1.37546795e-05 -6.51416e-05 0.511745 0.31005582
-0.3545099 0.7262698 0.25077003 -1.13766455e-05 2.1466281e-05 0.4629495 0.6959047 -1.9402219
-0.8697194 1.4949533 -2.9303112e-05 2.9393581e-05 0.21489781 0.66931415 1.8120441e-05 0.3440554
0.10410943 0.83742386 0.22985142 0.5564559 0.40647432 5.604754e-06 0.22140127 -0.07412528
0.6016449 0.00023803834 1.2075726 0.14411186 -1.5308772 4.8768943e-05 -9.485465e-06 8.352338e-06
-0.33301157 -1.3799709 -0.02405805 0.9493816 -0.52193815 -0.6206932 0.006198355 -0.0119085265
-1.2847575 0.23542802 -0.34472197 1.3352864 -0.9028172 0.03233559 -1.3850099 -1.928138e-05
-7.878413e-06 0.22401743 -0.2566829 -0.07045299 0.8423713 7.6108117e-06 4.818041e-05 -0.7472805
-1.3437954 -0.645003 -1.5443323 0.013367707 -1.5671647 0.10765376 -0.4860322 -0.008525884
0.049414605 -0.38316396 0.11710448 -0.20525627 0.96847886 -0.7712075 -0.023310076 -0.016512157
-0.4152115 0.6985107 0.45644972 -0.36182806 1.1123155 0.43560076 -0.06778149 -0.0001282552

weight f4 [100, 1524]
00000000: ae2e 32b9 55d5 983a 8189 d739 b3c8 273a
00000010: 9aa7 613c 27f4 673b 7ca3 7bba 2039 4b3a
00000020: 3561 2abc 548d b03a f256 de38 6ce2 013b
00000030: c246 0fbb f172 1eba e2db 80b9 dcda d737
00000040: 7ada db38 a234 103a c77a 023c 21a3 003c
00000050: bbc1 6cb9 b8b5 2739 282c 8f3a 5851 4c39
00000060: 27b7 5db9 6de8 0f3c 481f 46bc a147 57bc
00000070: 0fbb a2ba 1e14 7c38 a946 38b9 275e a4b7
00000080: 8fb7 bdb6 d199 af38 3388 98b8 0abe 233a
00000090: 697c f7b7 8aa5 2b38 9f33 b1b8 6869 88b9
000000a0: 145a a9b8 07dd b73b 4fa5 6b3c 49b8 f1b9
000000b0: 17ac aa39 ea7b 443c 9587 a739 635c 41bc
000000c0: 88da 4e3a d5d1 30b9 3fd4 f23b d158 ceba
000000d0: 9960 d5bb 0d6e f63a 6c51 83bc dab8 183c
000000e0: 4746 b7bc 44ea cfba fd0a 5ab9 1f7c bbba
000000f0: 81a3 30b8 aff6 23ba 8ec3 2aba e315 53bb
00000100: d53d cb3b 6a64 003a 3126 933a c487 06bb
00000110: 99a4 5cba dae2 9eb8 3abb b8ba db96 c3b9
00000120: 37e0 e839 edf8 a1b6 d22c 8c39 1e2e 04b8
00000130: 8fb8 443b 54c1 25b9 d167 2cb8 d9ff beb9
00000140: 6fa5 5539 3730 00bd ce98 8939 1f47 f4b7
00000150: 69b0 18b7 91ff 9a3a e1d7 5a39 4501 0d3c
00000160: 0355 893a 74e5 01ba 463c 5fba bd36 fe37
00000170: efa6 9138 71b6 adb9 1303 163c 2ba1 bbb7
00000180: 1055 913b 948a ef38 db74 8a3b dcc6 1ebc
00000190: 2f4d c439 c685 e737 934f 46ba afdf 8db9
000001a0: 36a2 b539 7baf f1b9 e250 94ba 035c 15bb
000001b0: 37af 09bc e2db cd37 4368 02b8 2d95 153a
000001c0: 6d11 9bbb b1e3 393a c4e8 d739 1839 43bc
000001d0: bf01 34ba d0b6 1dba 4395 2fba d9d5 5cb8
000001e0: c7db b238 8736 d3b9 f8b2 e3b9 e652 17bc
000001f0: 721b 56bb 276a abbb 804c 163a 44c8 7eb7
00000200: 6575 31ba 7a8f ce36 6e46 6bb6 f4b2 04bb
00000210: 9b20 8db8 d3f3 913b 2931 103a af5a e237
00000220: 6eba 7839 c81e d438 8075 313a 36e4 53b8
00000230: 97a1 1e38 ee78 7038 111a 0639 552e 82b9
00000240: 06e4 2838 fcfe 48b7 9bb8 a338 81c5 7738
00000250: bed6 fbb8 c100 42b9 2cc9 b0ba d135 9f38
00000260: aa53 e13b 1ab3 043a 1893 55bc b875 2e3a
00000270: dd88 08bc da7a 4bbc c045 1cba a944 8238
00000280: c843 89bc 1ec8 8439 beba 10b8 61eb 52b9
00000290: eb63 0b3a 85d1 3d38 6ba3 f1b9 dfbc a43b
000002a0: e26e 19bb 831b 02ba 8ddf 633a f2a7 923b
000002b0: 7679 dc38 4392 4fb8 0fa3 e33b 6b6d 91b9
000002c0: 5120 04bc 121f 8bbb 2e02 1637 75e7 fdb6
000002d0: 191a 38b8 568c 34b9 7791 0a3c edcd 1f3c
000002e0: af7d ea3a 254f 54bc dff1 2039 cdf1 f4b8
000002f0: de5e 0d3c cf81 8eb8 7472 0d38 0782 3037
00000300: 9a7e 3d39 9a2f 98bc a707 b239 468a f7b5
00000310: 1534 353b 5a2c 3a38 e7b7 683a 6fcf 5eb8
00000320: 1f20 883b dc7d 17b7 299b 01bd cb08 eeb8
00000330: e5eb 993c c183 d6b8 886d dd37 b8f9 1e38
00000340: 2775 2f3a ccbc 453c 2e6f 7339 a5a2 fabb
00000350: d04c 9cbb c6a7 0f3c fd95 a5b8 0c66 c739
00000360: 7e63 613b 8bb8 a8b9 164a f039 4e63 1dbc
00000370: 8c03 e7b9 da18 ecb9 aec9 be39 b2f5 dc37
00000380: 74b0 22b6 3543 97bb cbf6 98ba 1a8c 0c39
00000390: fa3a e2bb 2d44 61b6 1164 7c37 b332 cc3a
000003a0: 2c2b 7eba 7fca 253a b60c 0c3b 7db7 b9b9
000003b0: b907 0b3c c256 66ba 06f8 d2b8 16d4 aa39
000003c0: a172 2bba 5c9b 09ba b9ab 52ba d961 813a
000003d0: 2727 a9b9 8c5e a53a eae2 df39 8d56 ed39
000003e0: 1091 bc3a 16fc a8ba 0a89 c0ba bf66 973a
000003f0: 5178 acba cddc d4ba f288 503a 8fc4 1fb7
-0.00016992792 0.0011660258 0.00041110444 0.0006400451 0.0137728695 0.003539333 -0.0009599251 0.0007752348
-0.0103991525 0.0013469853 0.0001060198 0.0019818796 -0.0021862243 -0.0006044349 -0.00024577888 2.5731912e-05
0.00010483428 0.0005501007 0.007963843 0.007851393 -0.00022578884 0.00015994057 0.0010923194 0.00019485259
-0.00021144432 0.008783442 -0.012092419 -0.013139636 -0.0012415367 6.0100218e-05 -0.0001757393 -1.9594167e-05
-5.654008e-06 8.373301e-05 -7.273294e-05 0.00062462746 -2.9502628e-05 4.0923747e-05 -8.449633e-05 -0.00026018475
-8.075326e-05 0.0056110653 0.014382674 -0.00046104405 0.00032553144 0.011992434 0.0003195374 -0.011801812
0.000789084 -0.00016862836 0.0074105556 -0.0015743022 -0.0065117595 0.0018801108 -0.016030036 0.009321416
-0.022372378 -0.0015862663 -0.00020794194 -0.0014303959 -4.2113945e-05 -0.0006254715 -0.0006514125 -0.003220909
0.0062024393 0.00048977754 0.0011226592 -0.00205277 -0.0008416861 -7.5762815e-05 -0.0014093884 -0.00037305694
0.0004441754 -4.8271527e-06 0.00026736275 -3.1514202e-05 0.0030017232 -0.00015807647 -4.1104682e-05 -0.00036430245
0.00020374892 -0.03129598 0.00026244525 -2.9120185e-05 -9.10098e-06 0.0011825432 0.00020870521 0.00860626
0.0010477606 -0.00049551507 -0.00085157563 3.0304649e-05 6.9452326e-05 -0.0003313306 0.009156006 -2.2367187e-05
0.004435189 0.0001142222 0.004225356 -0.009690966 0.0003744154 2.7599639e-05 -0.0007564958 -0.00027060273
0.00034643867 -0.00046097845 -0.0011315609 -0.002279044 -0.008403591 2.4540295e-05 -3.1091517e-05 0.0005706128
-0.004732302 0.00070911186 0.0004118142 -0.011915468 -0.0006866715 -0.0006016316 -0.0006697962 -5.265125e-05
8.528638e-05 -0.00040285682 -0.00043430156 -0.009236073 -0.0032670167 -0.00523116 0.0005733445 -1.5186208e-05
-0.00067695073 6.1559813e-06 -3.5058724e-06 -0.0020248266 -6.729477e-05 0.004454115 0.00055004895 2.6983527e-05
0.00023720574 0.00010114681 0.0006769523 -5.051886e-05 3.7820628e-05 5.7333084e-05 0.00012788946 -0.00024830052
4.0266685e-05 -1.1980297e-05 7.806831e-05 5.907333e-05 -0.000120086115 -0.00018501563 -0.0013487688 7.591735e-05
0.0068764286 0.00050620886 -0.013035558 0.00066551147 -0.008333412 -0.012419427 -0.00059613213 6.211672e-05
-0.016755953 0.000253261 -3.4506193e-05 -0.00020114846 0.0005317318 4.525624e-05 -0.00046088858 0.005027398
-0.0023412039 -0.0004963206 0.00086926745 0.004475587 0.00010513041 -4.9488863e-05 0.0069469283 -0.00027738078
-0.008064345 -0.004245647 8.941204e-06 -7.5669327e-06 -4.3893324e-05 -0.00017218417 0.008457533 0.009753686
0.001789024 -0.012958323 0.00015348893 -0.000116798656 0.008628575 -6.7952664e-05 3.3723612e-05 1.0520692e-05
0.00018071607 -0.018577386 0.00033956507 -1.8443177e-06 0.0027649452 4.438716e-05 0.0008877501 -5.3122112e-05
0.0041542198 -9.029605e-06 -0.031642113 -0.00011350362 0.018789241 -0.00010228856 2.6396257e-05 3.7902704e-05
0.0006693177 0.012068938 0.00023215704 -0.0076487833 -0.004769899 0.008768028 -7.8957506e-05 0.0003803227
0.0034391577 -0.00032180952 0.00045831566 -0.009606196 -0.00044062396 -0.00045031944 0.00036389887 2.6340454e-05
-2.424259e-06 -0.004616166 -0.001167023 0.00013403632 -0.006904003 -3.3567296e-06 1.5043669e-05 0.0015579074
-0.0009695764 0.0006324425 0.002136988 -0.0003542266 0.008485728 -0.00087867316 -0.00010059778 0.00032582943
-0.00065402134 -0.00052492856 -0.0008036453 0.000987108 -0.00032263363 0.0012616678 0.0004270294 0.00045268648
0.0014386494 -0.001289251 -0.0014689278 0.0011551006 -0.0013158416 -0.001624012 0.0007954977 -9.522903e-06

bias f4 [100]
00000000: 1ea4 32be 7546 903d badc 443e fabd 1f3e
00000010: 8f89 273e 271d 393e 36d2 34be 31d0 fcbd
00000020: d807 28be 6e79 333d ec26 36be 41a8 273e
00000030: 75ae b53d 7ec0 49bb bd31 88bc 9150 28be
00000040: 90fb 553e 02eb f2bc cb3b cbbc e013 16be
00000050: 8972 44be 92b8 2ebb ddbd 293e 80e8 e03d
00000060: dc86 2fbe 5506 90bc 5b51 533e c4f9 29be
00000070: dde0 1f3e 892f e93c ce84 21be ee4d 6cbd
00000080: 7d5a 45be abda f8bd 17c4 343e 48e4 1b3e
00000090: 7402 a9bc d58a 133e 5c0f 2f3e 3ec0 413e
000000a0: 4d23 d7bd 1ddb 473e 0ed8 27be 11ba 4c3e
000000b0: d492 063d 2afe 34be f1ec 1cbe 626d 2cbe
000000c0: 00ab 0e3e 6ab8 bfbc f476 273e 191b 833d
000000d0: 1a0f c2bd 36ae 403d 228c 26be 7cab 2a3e
000000e0: 774a 403e 01e0 233e a7cd 843d 7fbd 553e
000000f0: 446b 35be 222c 46be dfae 4e3e f925 293e
00000100: cc2e 0cbe 139f c43c 2a97 3c3e 171f 573e
00000110: 2d83 30be d7c9 2c3e 067c 293e 9a8f 1fbe
00000120: 454e 4ebe 7dc1 4bbe 1b81 403e 8fae 30be
00000130: 8901 4cbe 535d 263d 7a99 5f3d 3cf8 323e
00000140: de73 dc3d 552a 623d fb6b 2fbe bc35 f5bd
00000150: bc2d bcbc 6261 2f3e 2ae0 55be 519e f63d
00000160: be18 22be 11c0 ce3c deb2 2f3e 8067 29be
00000170: ff7d 903d 2194 20be 944b 583e b6df 4fbe
00000180: 26bc 3a3e 6f64 4ebe f84f 20be 7483 2a3e
-0.17445418 0.070446886 0.19224826 0.15599814 0.16361068 0.18077527 -0.17658314 -0.12344397
-0.16409242 0.043816976 -0.17788285 0.16372778 0.08871166 -0.00307849 -0.01662528 -0.16436984
0.20896745 -0.029653076 -0.024808785 -0.14656019 -0.19184317 -0.0026660305 0.16576333 0.10981846
-0.17141289 -0.017581144 0.20636503 -0.16599184 0.15613122 0.02846505 -0.15773317 -0.057691507
-0.192728 -0.121510826 0.17652927 0.15223801 -0.020631053 0.14408429 0.17095703 0.18920991
-0.1050478 0.19517179 -0.16391012 0.19992854 0.03285487 -0.17675081 -0.15324761 -0.16838601
0.13932419 -0.023403365 0.16353971 0.06401653 -0.09475537 0.04704114 -0.16264394 0.16666979
0.18778406 0.1600342 0.064845376 0.20873068 -0.177167 -0.19352773 0.20183896 0.16518392
-0.13689727 0.024001634 0.1841704 0.21007954 -0.1723754 0.16873871 0.16551217 -0.15582123
-0.20147045 -0.19898029 0.1879925 -0.17254089 -0.1992246 0.040616345 0.054589726 0.17477506
0.107642874 0.055216152 -0.17131035 -0.1197314 -0.022971027 0.17126992 -0.20886293 0.12041915
-0.15829751 0.025238069 0.17158076 -0.16543388 0.07055282 -0.15681507 0.21122581 -0.20300183
0.18235835 -0.201555 -0.15655506 0.16651708

weight f4 [1, 100]
00000000: f8f2 95bd 5040 7bb9 b460 9e3c 3522 6b3c
00000010: 6d34 303e 8192 c33c e6af bbbc ed10 b8ba
00000020: b42a 67bc 6a68 3139 474b 1ebe 41d3 8e3d
00000030: 360d 523a 0b87 8d3a 3cb9 fd38 e012 8cbb
00000040: 0421 b83d 2b69 b93b 45a4 82ba 439a a8ba
00000050: 0f61 2abe 7f62 023a 2662 093e 6980 723a
00000060: ed76 e4bd ab6b 003c 7fdd 323e c919 15be
00000070: 11a8 3f3b 38ed 13ba 288c f2bd 374e f23a
00000080: 0f07 4ebd cab9 1bba 531d 073e 80da 523b
00000090: 1cd5 26bc 6e9e 023d 4805 353c 81ac a13d
000000a0: 387d 2eba 8106 363d 99cf a4bd b8aa 3a3d
000000b0: 8f05 8abb 1cc1 06be c299 c9bc b6b1 12be
000000c0: 3a37 c73b 154a 423a e139 0f3e 9f63 f3bb
000000d0: 8404 4bba 5d93 303c ab38 07be a736 c23d
000000e0: 4f7e 0e3e 8a0d da3b 75d7 cdb9 1c7b bc3d
000000f0: 1c41 f3bd 5c86 11bd f466 a23d e769 b93d
00000100: 459f 7eba 7b1f 573c c6c4 b13d 6f91 223e
00000110: 2f85 35be eb84 e43b dfd2 053e 2c6a 18be
00000120: dd10 a4bd 750d e3bd aedf 0d3e 440a 8bbd
00000130: d4c7 41be c864 423b ebfd fdba d51b b63d
00000140: 981c 5e3a 2498 0b3c 1d89 14be 8652 3bbb
00000150: 115d b1bb 7f1a 0d3e 4366 26be 6d26 7a3a
00000160: b702 71bc cd2a db3a 1603 163e 950b 40bd
00000170: 6ff9 f3b8 7592 23be d20d 223e a1ac ffbd
00000180: 59ff 4c3e 6bfb 31bd 8408 eebd 28ec 273e
-0.07321733 -0.00023961184 0.019333221 0.014351417 0.17207499 0.02387357 -0.022911023 -0.001404313
-0.014109302 0.00016918933 -0.15458404 0.06973887 0.0008012833 0.0010797692 0.00012098483 -0.004274711
0.08990672 0.005658289 -0.0009967169 -0.0012863356 -0.16638587 0.00049737835 0.13416347 0.0009250702
-0.11155496 0.00783817 0.17467307 -0.14560618 0.0029244462 -0.00056429533 -0.11843139 0.0018486445
-0.0502997 -0.00059404655 0.1319478 0.0032173693 -0.010182645 0.03188937 0.011048622 0.07894231
-0.0006656232 0.044439796 -0.080474086 0.045572966 -0.0042120884 -0.13159603 -0.02460945 -0.14325604
0.0060795816 0.0007411552 0.13986923 -0.0074276472 -0.00077445083 0.010777322 -0.13205211 0.0948308
0.1391537 0.006654446 -0.00039261175 0.09203169 -0.11877653 -0.035528526 0.07929793 0.090534024
-0.0009713064 0.013130064 0.0868011 0.15875791 -0.17726587 0.006973853 0.13068722 -0.14884251
-0.08011029 -0.11086551 0.13854858 -0.067890674 -0.18923885 0.002966212 -0.0019378042 0.08892027
0.0008472889 0.00852016 -0.1450543 -0.0028583123 -0.0054127057 0.13779639 -0.16249947 0.0009542469
-0.01471012 0.001672113 0.14649615 -0.046886045 -0.000116336036 -0.15973838 0.15825585 -0.12484098
0.20019282 -0.04345266 -0.11622718 0.1639868
